models/ipd_bc_model.pt (torch, 30609 bytes, 5 tensors)

model.0.weight f4 [64, 40]
0.12088367 0.13123576 -0.037042286 0.14524494 -0.034643404 0.031905904 -0.07697866 0.09285777
0.13938406 -0.11599679 0.13743189 0.02959268 0.11681586 0.02141346 0.07624051 -0.022324068
0.12188768 0.023370638 -0.07381399 0.040303152 -0.07284894 -0.018542469 -0.06421939 0.10488837
-0.124810465 -0.07289214 -0.044647504 -0.095069304 0.014923181 -0.15616578 0.14279398 -0.1343126
0.12206816 0.02631317 -0.051340435 0.0977067 0.02464208 0.12775023 0.01728483 -0.04986469
0.042481747 -0.042877235 0.066542625 0.14116722 0.09139837 -0.069123045 0.09127277 0.028290296
0.08029491 -0.09637121 -0.156519 -0.061089393 -0.121277824 0.12973858 0.045540966 0.06549247
0.05000442 -0.0027505457 0.123740435 -0.1123425 0.009954575 -0.10791908 0.048753954 -0.05445205
0.0484478 -0.032941684 0.13113764 -0.09371484 -0.09429967 -0.094304495 0.14221367 0.052691195
0.1521443 -0.13048764 -0.15683012 -0.12370301 -0.10636234 0.064042464 0.056615986 0.13138035
-0.08165601 -0.1077881 0.083889775 -0.06391233 0.09596109 -0.037520528 0.090446405 -0.12285142
-0.07979412 0.048205197 0.03342448 -0.04031448 0.09424484 0.107487276 -0.114661984 -0.084413975
0.1447769 -0.053352766 -0.056055937 -0.15299213 -0.090549074 0.03949742 -0.020871915 -0.114774585
0.0037068927 -0.108004674 -0.13414522 -0.08706932 -0.1383851 -0.100677125 0.15805013 0.029861914
0.048722554 -0.14747034 -0.10384679 -0.052630782 0.024723032 -0.13912778 -0.06812806 -0.09465796
0.00043936697 -0.058834687 -0.010955415 -0.10714148 -0.10852735 -0.092243925 -0.0541207 -0.124795005
0.13257506 -0.031379923 0.13604197 0.04926672 -0.13388924 0.109420374 -0.043503176 -0.060608227
-0.13124458 -0.1571906 0.045239136 -0.034537986 0.061558153 -0.12975828 0.117389135 -0.116063386
-0.02730163 0.033025205 0.08162699 0.12764747 0.14403611 -0.125372 0.039792873 -0.06800797
-0.017326618 -0.118346676 0.14401968 -0.116047375 0.084503785 0.055567473 0.051379643 -0.08548392
0.14371578 0.03474559 0.020337733 -0.13934067 0.06637237 -0.023720339 -0.07243783 0.13580932
0.035249278 -0.08748068 -0.08002961 -0.00755287 0.088282645 -0.04040344 -0.090217836 -0.054147005
-0.11812492 0.056388542 0.12238449 -0.14885683 0.036720052 0.08168033 0.028668666 -0.056310277
0.08252433 0.08309093 0.059121136 -0.027785964 -0.0418706 0.016915172 -0.02793332 -0.047119983
0.10106596 0.13588299 -0.015654348 -0.035402723 0.002308567 -0.009440705 0.038013604 0.044309963
-0.14360903 -0.05834999 0.13315135 0.06159306 -0.007865173 -0.09532777 -0.096735835 -0.14163412
-0.05154007 0.05339572 0.10081599 0.07299996 -0.13976493 -0.09508375 -0.024954084 0.15295032
0.022871457 -0.04094687 0.065413274 -0.060223464 -0.10234067 0.115405306 -0.07189513 -0.031697016
-0.15729165 0.10582097 0.11979339 0.057625256 -0.110247724 -0.1560489 -0.12841569 0.11790676
0.075910956 0.13305353 0.08283075 0.04001718 -0.0015490238 -0.12024656 -0.13546816 -0.14789203
0.064727865 -0.07762885 -0.031818766 -0.09099331 -0.028810022 -0.11128607 -0.10331202 0.052450143
-0.046988834 0.09761052 -0.050722286 -0.11598514 -0.02789541 -0.07664529 -0.048371572 -0.15052168
00000000: dc91 f73d ab62 063e a7b9 17bd 17bb 143e
00000010: 3ee6 0dbd c4af 023d fda6 9dbd 372c be3d
00000020: b2ba 0e3e ba8f edbd f2ba 0c3e 596c f23c
00000030: 273d ef3d 486b af3c fc23 9c3d f7e0 b6bc
00000040: 3fa0 f93d c873 bf3c ca2b 97bd eb14 253d
00000050: d331 95bd 60e6 97bc 7585 83bd b7cf d63d
00000060: a19c ffbd 7948 95bd 4de0 36bd b2b3 c2bd
00000070: 5c80 743c ece9 1fbe 9638 123e 3e89 09be
00000080: dffe f93d b88e d73c 594a 52bd 731a c83d
00000090: 30de c93c f5d0 023e ea98 8d3c eb3e 4cbd
000000a0: 5701 2e3d 0aa0 2fbd 8047 883d 248e 103e
000000b0: 122f bb3d 6290 8dbd 38ed ba3d 0dc1 e73c
000000c0: a871 a43d 455e c5bd 8446 20be df38 7abd
000000d0: 8260 f8bd 31da 043e 2a89 3a3d eb20 863d
000000e0: 6fd1 4c3d 8042 34bb a06b fd3d d313 e6bd
000000f0: 8418 233c ae04 ddbd 3ab2 473d 1d09 5fbd
00000100: 3371 463d dced 06bd f248 063e 91ed bfbd
00000110: 2f20 c1bd b722 c1bd 76a0 113e b9d2 573d
00000120: b7cb 1b3e 8d9e 05be 1398 20be 0158 fdbd
00000130: 80d4 d9bd b228 833d 2ae6 673d 9288 063e
00000140: 443b a7bd 02c0 dcbd 67ce ab3d 78e4 82bd
00000150: 3f87 c43d 20af 19bd f73b b93d 8699 fbbd
00000160: 196b a3bd d072 453d 1ce8 083d cc20 25bd
00000170: 7003 c13d 4a22 dc3d e7d3 eabd 3ce1 acbd
00000180: 6540 143e 6e88 5abd e99a 65bd f8a9 1cbe
00000190: cb71 b9bd 0cc8 213d 94fb aabc f00e ebbd
000001a0: 57ef 723b 8e31 ddbd 5d5d 09be 6651 b2bd
000001b0: d3b4 0dbe cf2f cebd e5d7 213e f9a0 f43c
000001c0: 4d91 473d 7702 17be a0ad d4bd 6093 57bd
000001d0: f587 ca3c 8377 0ebe b986 8bbd 08dc c1bd
000001e0: d65a e639 a4fc 70bd 577e 33bc fe6c dbbd
000001f0: 9643 debd 62ea bcbd abad 5dbd 8694 ffbd
00000200: c2c1 073e 3c88 00bd 964e 0b3e e6cb 493d
00000210: 431a 09be ca17 e03d 6330 32bd 5540 78bd
00000220: fb64 06be 93f6 20be ac4c 393d b477 0dbd
00000230: 6724 7c3d 5bdf 04be b769 f03d a4b2 edbd
00000240: aba7 dfbc 7045 073d 0d2c a73d 05b6 023e
00000250: 347e 133e 8461 00be dafd 223d c347 8bbd
00000260: 8df0 8dbc be5f f2bd e579 133e 3faa edbd
00000270: 5210 ad3d b89a 633d 7673 523d 3212 afbd
00000280: 3b2a 133e 6451 0e3d 519b a63c 52af 0ebe
00000290: 3dee 873d 2851 c2bc 495a 94bd 9911 0b3e
000002a0: 8c61 103d 1229 b3bd 90e6 a3bd 117e f7bb
000002b0: 88cd b43d 147e 25bd 21c4 b8bd 40c9 5dbd
000002c0: 7aeb f1bd acf7 663d b8a4 fa3d ed6d 18be
000002d0: c467 163d 0448 a73d 8dda ea3c 9ba5 66bd
000002e0: 8402 a93d 942b aa3d 0129 723d 649f e3bc
000002f0: 8280 2bbd b091 8a3c 6bd4 e4bc e200 41bd
00000300: acfb ce3d e924 0b3e 8c3d 80bc 7202 11bd
00000310: 544b 173b 30ad 1abc 27b4 1b3d 5d7e 353d
00000320: 3f0e 13be 6600 6fbd d458 083e 0149 7c3d
00000330: eddc 00bc 353b c3bd 701d c6bd 8908 11be
00000340: ae1b 53bd 78b5 5a3d 9d78 ce3d 0181 953d
00000350: 8a1e 0fbe 45bb c2bd 826c ccbc 029f 1c3e
00000360: ec5c bb3c e8b7 27bd 65f7 853d e1ac 76bd
00000370: fc97 d1bd 9e59 ec3d c13d 93bd bbd4 01bd
00000380: 1011 21be aab8 d83d 3d56 f53d 7608 6c3d
00000390: 8fc9 e1bd 48cb 1fbe 677f 03be 1979 f13d
000003a0: 3477 9b3d 2f3f 083e 2ba3 a93d 0ee9 233d
000003b0: 9d08 cbba d443 f6bd 2ab8 0abe 0271 17be
000003c0: 0b90 843d e0fb 9ebd 6554 02bd b35a babd
000003d0: ff02 ecbc f3e9 e3bd 4195 d3bd f6d5 563d
000003e0: 5d77 40bd 06e8 c73d 2cc2 4fbd 9e89 edbd
000003f0: ea84 e4bc 35f8 9cbd 4521 46bd 5b22 1abe

model.0.bias f4 [64]
-0.07973147 0.1105189 0.10468381 0.025373206 -0.072710745 0.033525277 0.00042072617 0.1444512
0.023430254 0.012193213 0.010810658 0.08411611 -0.0019552303 0.13552809 0.08237371 -0.119473174
-7.4264614e-07 -0.13421017 -0.12140311 0.030722486 0.03553296 -0.013835029 0.15028095 -0.08494271
-0.066265136 -0.025319265 0.0009568633 -0.0133906985 0.14236216 -0.066778645 -0.0827042 0.01359194
0.11875458 0.03752775 0.085179284 0.03060657 0.13475756 0.09496897 0.11314053 -0.021298353
-0.13089976 -0.07500163 0.05386637 0.11092564 -0.06177379 0.13082442 0.022726936 0.0006263076
0.0061619407 -0.027933495 0.14802277 0.006869557 0.096844085 -0.1334514 -0.08146154 0.01777577
0.12625241 0.07527393 0.030112518 -0.15621312 0.0029705367 -0.10437047 -0.13500763 0.021622287
00000000: 414a a3bd bc57 e23d 7764 d63d 78db cf3c
00000010: 5fe9 94bd cd51 093d e994 dc39 04eb 133e
00000020: cef0 bf3c 0bc6 473c 301f 313c 1145 ac3d
00000030: 5223 00bb e0c7 0a3e 8cb3 a83d 5aae f4bd
00000040: 415a 47b5 646e 09be 32a2 f8bd b9ad fb3c
00000050: 028b 113d 51ac 62bc 40e3 193e 72f6 adbd
00000060: 04b6 87bd 596a cfbc 02d6 7a3a a964 5bbc
00000070: 63c7 113e 3ec3 88bd d260 a9bd bab0 5e3c
00000080: 9a35 f33d b3b6 193d 7a72 ae3d a1ba fa3c
00000090: e3fd 093e 177f c23d 39b6 e73d e279 aebc
000000a0: 960a 06be 749a 99bd fca2 5c3d fb2c e33d
000000b0: 8306 7dbd d6f6 053e d72d ba3c cb2e 243a
000000c0: 1bea c93b c9d4 e4bc 4893 173e 051a e13b
000000d0: 3156 c63d 7ca7 08be 4fd5 a6bd 7e9e 913c
000000e0: 5048 013e 3829 9a3d 87ae f63c 55f6 1fbe
000000f0: 56ad 423b 2fc0 d5bd 713f 0abe 3921 b13c

model.3.weight f4 [64, 64]
-0.07908892 0.11345423 -0.06794387 0.04028184 0.073369086 -0.097156465 0.06397077 -0.016738528
0.0647689 0.12096505 -0.0532723 -0.05413889 0.0993173 0.013899223 -0.01246823 0.09483186
-0.060393814 -0.0061734077 0.08585848 0.048849612 -0.08085331 0.032488003 -0.095305614 -0.06788542
0.080374725 -0.033315774 -0.063671075 0.008858589 0.030545453 -0.07770265 -0.08429666 -0.12106026
0.03229615 -0.08065481 0.009524341 -0.027958963 -0.08173425 -0.039888818 -0.0960869 -0.06616693
-0.0038982392 -0.106865965 -0.109630376 0.09363097 0.011760701 -0.05528355 -0.0041572778 0.09269486
-0.104284756 -0.06627462 -0.09039402 -0.009088852 -0.0043034256 -0.097413816 0.086760126 -0.095991455
0.11670285 -0.08604775 -0.017131364 0.023372907 -0.055561095 0.114953816 -0.08617974 -0.006929725
-0.09178173 0.03469984 0.10657541 0.115950294 0.014841176 -0.0625786 0.12148266 0.009330871
0.08457413 -0.06492514 -0.058009636 -0.10376482 0.11501746 0.020737158 -0.08977164 0.010738139
-0.05361221 0.006246357 0.04149218 -0.06202729 0.021814128 -0.078920744 0.024088329 -0.12069004
0.019920774 0.12419193 0.11514095 0.045599613 0.091980666 0.12153326 0.035422906 0.041691817
0.016256185 0.11066818 0.107381925 -0.05878046 -0.005136628 -0.06297835 0.04485485 -0.121122316
0.044235554 -0.034304116 0.045333516 0.03901529 -0.062200356 0.06485335 0.053082846 -0.1062535
0.12472101 0.10759614 0.0777748 -0.012685576 0.04428804 -0.06762599 -0.042473026 0.058996666
0.055648074 0.04950017 -0.11921558 0.103586875 -0.052208893 0.1081786 0.10299526 0.046332676
0.12453568 0.07177687 0.0733087 -0.04244854 0.11593378 0.032759815 0.073852465 -0.028265538
0.09052562 0.11088573 -0.09578341 0.10247377 -0.08261274 -0.08605998 -0.104462676 0.036117945
-0.093853414 -0.047055423 -0.06283707 0.033406157 -0.1227218 -0.05730705 0.00091373734 0.011223252
-0.056454837 0.044780966 -0.082471125 -0.10586318 -0.017772596 -0.06758248 0.07879056 -0.08544184
-0.01049582 0.05191725 -0.1094691 0.09676293 -0.05679892 -0.034016494 -0.07646501 -0.046581514
-0.048200663 -0.111236386 0.042711504 -0.0004022219 0.12227687 0.08433266 0.10874077 0.03677663
0.06568041 0.11704617 0.10262796 -0.09605151 -0.028030617 -0.12055857 0.0047269193 -0.04415054
0.108487554 0.019761132 0.001374169 -0.090421066 -0.09809333 0.019676674 -0.062111583 -0.05740722
0.08767874 -0.06516552 -0.05564017 0.09597388 0.04883537 -0.07102802 0.037854012 0.063015066
-0.11102711 0.023348864 0.028556712 -0.0048702136 0.119848415 -0.08262352 0.067762546 -0.06640412
-0.10701378 0.08518805 -0.059966967 0.0058730803 0.0657362 -0.10433432 -0.106999956 0.04255558
0.10898883 -0.013229036 0.088025816 0.04392306 0.03566084 -0.07969761 0.1189631 0.05725302
0.019325998 0.0884111 -0.10740517 0.02693342 -0.05884312 -0.012695453 0.04095334 0.055360556
0.028673794 -0.096745975 -0.078231044 0.002180662 -0.02165093 -0.10462877 0.123144515 0.015721172
-0.088820815 0.05482123 0.05431036 -0.061322637 0.062678464 -0.077543475 0.043308176 0.118736215
0.08251433 0.06170906 -0.025433127 0.023464797 0.043618716 0.030529406 -0.025325458 0.017439814
00000000: 5ff9 a1bd b15a e83d 2826 8bbd 92fe 243d
00000010: 8842 963d f8f9 c6bd 1b03 833d 3d1f 89bc
00000020: 8fa5 843d 86bc f73d 0e34 5abd bec0 5dbd
00000030: de66 cb3d 91b9 633c 8c47 4cbc 3537 c23d
00000040: 815f 77bd 4c4a cabb 92d6 af3d 8816 483d
00000050: 6c96 a5bd 2412 053d 972f c3bd 8307 8bbd
00000060: 819b a43d 1f76 08bd fb65 82bd 9e23 113c
00000070: 753a fa3c 9122 9fbd baa3 acbd 71ee f7bd
00000080: f848 043d 592e a5bd fb0b 1c3c 320a e5bc
00000090: 4964 a7bd 7562 23bd 35c9 c4bd 8782 87bd
000000a0: 9a79 7fbb 8bdc dabd e485 e0bd 98c1 bf3d
000000b0: f5af 403c 0171 62bd c639 88bb ced6 bd3d
000000c0: 3f93 d5bd fdba 87bd 8020 b9bd 69e9 14bc
000000d0: c003 8dbb e580 c7bd 4baf b13d 2b97 c4bd
000000e0: e701 ef3d ce39 b0bd 1357 8cbc 8a78 bf3c
000000f0: 0894 63bd e86c eb3d 017f b0bd bf12 e3bb
00000100: 0ff8 bbbd 6b21 0e3d 3544 da3d 5977 ed3d
00000110: 6728 733c 3629 80bd e7cb f83d 82e0 183c
00000120: 3435 ad3d 79f7 84bd 839b 6dbd a682 d4bd
00000130: 468e eb3d f9e0 a93c 32da b7bd 05ef 2f3c
00000140: 7a98 5bbd 3eae cc3b b4f3 293d 5410 7ebd
00000150: 8bb3 b23c 33a1 a1bd e354 c53c 572c f7bd
00000160: e430 a33c 5758 fe3d 05cf eb3d a9c6 3a3d
00000170: 5c60 bc3d 6ee6 f83d 9c17 113d 0ac5 2a3d
00000180: b12b 853c 00a6 e23d 0eeb db3d c8c3 70bd
00000190: 2951 a8bb cbfa 80bd b8b9 373d fa0e f8bd
000001a0: 5730 353d 7982 0cbd a3af 393d 7fce 1f3d
000001b0: cdc5 7ebd d5d1 843d 666d 593d 6f9b d9bd
000001c0: bb6d ff3d 5d5b dc3d 6548 9f3d 2ad7 4fbc
000001d0: 6067 353d 7f7f 8abd 32f8 2dbd 7da6 713d
000001e0: 3cef 633d b1c0 4a3d 4c27 f4bd 5b25 d43d
000001f0: fed8 55bd be8c dd3d 2eef d23d 55c7 3d3d
00000200: 900c ff3d c0ff 923d df22 963d 85de 2dbd
00000210: b16e ed3d 282f 063d f63f 973d 218d e7bc
00000220: 7f65 b93d 0f18 e33d 182a c4bd c5dd d13d
00000230: de30 a9bd 3740 b0bd 87f0 d5bd 69f0 133d
00000240: 3836 c0bd 30bd 40bd b9b0 80bd e5d4 083d
00000250: 9155 fbbd ccba 6abd e087 6f3a bbe1 373c
00000260: 303d 67bd 3f6c 373d 9fe6 a8bd cbce d8bd
00000270: d697 91bc af68 8abd f25c a13d 22fc aebd
00000280: a9f6 2bbc 2fa7 543d 5631 e0bd a52b c63d
00000290: fca5 68bd e154 0bbd b099 9cbd 42cc 3ebd
000002a0: 0f6e 45bd e7cf e3bd 42f2 2e3d 4fe1 d2b9
000002b0: 4c6c fa3d 9ab6 ac3d 7bb3 de3d 17a3 163d
000002c0: 7383 863d e7b5 ef3d 9c2e d23d a7b6 c4bd
000002d0: 77a0 e5bc 69e7 f6bd 46e4 9a3b 32d7 34bd
000002e0: b92e de3d 19e2 a13c 761d b43a ae2e b9bd
000002f0: 28e5 c8bd fa30 a13c b768 7ebd d523 6bbd
00000300: e990 b33d 8075 85bd f2e6 63bd f48d c43d
00000310: 9907 483d 2377 91bd cf0c 1b3d 0b0e 813d
00000320: 2e62 e3bd 1e46 bf3c c4ef e93c 5096 9fbb
00000330: 1673 f53d 8536 a9bd 17c7 8a3d e2fe 87bd
00000340: 0a2a dbbd 1377 ae3d ec9f 75bd f872 c03b
00000350: b3a0 863d 3bad d5bd cb22 dbbd c34e 2e3d
00000360: 8935 df3d 99be 58bc e146 b43d abe8 333d
00000370: 1a11 123d 8038 a3bd eda2 f33d 2582 6a3d
00000380: 8e51 9e3c e110 b53d 3ef7 dbbd 7aa3 dc3c
00000390: 7c05 71bd 9700 50bc b0be 273d c0c1 623d
000003a0: 4ee5 ea3c c122 c6bd 9937 a0bd 70e9 0e3b
000003b0: 4b5d b1bc 9c47 d6bd 3133 fc3d b0c9 803c
000003c0: b0e7 b5bd 3a8c 603d 8a74 5e3d 722d 7bbd
000003d0: 915d 803d 1dcf 9ebd ea63 313d f92b f33d
000003e0: 46fd a83d a4c2 7c3d 2259 d0bc 3f39 c03c
000003f0: 8aa9 323d ce18 fa3c 5677 cfbc f1dd 8e3c

model.3.bias f4 [64]
0.08445127 -0.03543862 0.029544698 0.03292731 -0.064027414 0.003091828 0.024964957 -0.122248486
-0.024619697 0.011898847 0.10295227 0.027678454 -0.10624308 -0.036638934 0.12376058 -0.01626506
0.09430032 0.014343725 0.08201956 -0.05371485 0.12280113 0.026378838 -0.025589231 0.096115306
0.06164407 -0.08402339 -0.008986023 0.08959287 0.031144414 -0.039533474 -0.08138578 -0.08753458
0.06948711 0.056560524 -0.11076839 -0.025664216 0.03163447 -0.11059787 0.10772266 -0.013333187
-0.050776243 0.013916337 0.04515674 0.027774807 0.11854378 0.07037042 -0.012104843 0.021280758
0.03028763 -0.049575698 -0.10710876 -0.013294712 -0.047614574 -0.11807997 0.04458 -0.052449442
0.11967802 0.044707116 0.053234972 0.036435015 0.048747916 0.08003352 0.09183025 -0.006828428
00000000: caf4 ac3d 1628 11bd b907 f23c c9de 063d
00000010: ce20 83bd 44a0 4a3b 4f83 cc3c 6a5d fabd
00000020: 3faf c9bc 62f3 423c a4d8 d23d edbd e23c
00000030: f995 d9bd b512 16bd 3076 fd3d 4e3e 85bc
00000040: 8720 c13d f101 6b3c dff9 a73d 1a04 5cbd
00000050: 297f fb3d 6f18 d83c 82a0 d1bc 1ad8 c43d
00000060: 7e7e 7c3d 7514 acbd 1d3a 13bc 777c b73d
00000070: 9222 ff3c daed 21bd 96ad a6bd 5445 b3bd
00000080: 424f 8e3d 02ac 673d 8ada e2bd c33d d2bc
00000090: 2593 013d 2381 e2bd b39d dc3d 7173 5abc
000000a0: c0fa 4fbd 5901 643c 46f6 383d fe87 e33c
000000b0: 15c7 f23d 5e1e 903d 6453 46bc fc54 ae3c
000000c0: c41d f83c e30f 4bbd d65b dbbd 10d2 59bc
000000d0: 8007 43bd e9d3 f1bd 8599 363d 3ad5 56bd
000000e0: c019 f53d cf1e 373d ea0c 5a3d e23c 153d
000000f0: e5ab 473d 9de8 a33d 8011 bc3d 01c1 dfbb

model.6.weight f4 [1, 64]
-0.035434 0.033868786 -0.056398645 -0.0063494365 0.03649924 0.055855896 -0.12090731 0.04840404
-0.048395403 -0.088042796 -0.053232044 -0.0026952121 0.061560605 -0.11132656 0.033955064 0.11262448
-0.07062032 0.029871698 -0.050250195 0.030733638 0.054129098 -0.076999344 0.029913763 0.123551436
0.008772433 -0.08872661 0.0015652333 0.027567863 0.038491268 -0.009010028 -0.026788179 -0.06214955
0.080776885 -0.07061099 -0.04254497 0.08293894 -0.058740556 -0.016313229 -0.04983528 -0.11079535
0.0602587 -0.055502646 -0.057681162 -0.027541779 0.034250155 0.10975741 0.11056645 0.0017095809
-0.1072062 0.009225885 0.0028900832 0.10556941 -0.025834784 -0.117452234 0.04541379 -0.027411869
0.04361771 0.037613243 0.04455932 0.06914605 -0.0876296 -0.10181454 0.11703548 0.1142549
00000000: 3e23 11bd ffb9 0a3d 4402 67bd ef0e d0bb
00000010: 3a80 153d 27c9 643d 409e f7bd 5143 463d
00000020: 423a 46bd c84f b4bd d809 5abd 28a2 30bb
00000030: f926 7c3d 2eff e3bd 7714 0b3d aaa7 e63d
00000040: 63a1 90bd 7eb5 f43c 26d3 4dbd 1cc5 fb3c
00000050: 79b6 5d3d d5b1 9dbd b50d f53c 8908 fd3d
00000060: 40ba 0f3c 4cb6 b5bd 8428 cd3a 00d6 e13c
00000070: 05a9 1d3d cc9e 13bc e272 dbbc 8790 7ebd
00000080: 5a6e a53d 7f9c 90bd a243 2ebd e4db a93d
00000090: f099 70bd 52a3 85bc 1420 4cbd ace8 e2bd
000000a0: d4d1 763d be56 63bd 1543 6cbd 4c9f e1bc
000000b0: e449 0c3d 7ec8 e03d aa70 e23d 0414 e03a
000000c0: ed8e dbbd 2b28 173c 8d67 3d3b c634 d83d
000000d0: 78a3 d3bc cc8a f0bd cf03 3a3d db8e e0bc
000000e0: 7ca8 323d 5810 1a3d d583 363d 729c 8d3d
000000f0: 2677 b3bd 2484 d0bd 4cb0 ef3d 79fe e93d
